best_model_save.pt (torch, 794697 bytes, 8 tensors)

weight f4 [200, 978]
0	0x3d6d1ac5	0.057886858
1	0x3d6025a7	0.054723408
2	0xbc01986c	-0.007909875
3	0x3cfadc2a	0.03062256
4	0xbcf597fb	-0.029979696
5	0x39ead792	0.0004479257
6	0xbc9396fd	-0.018016333
7	0xbd429ba7	-0.047511723
8	0xbcd94987	-0.026524318
9	0xbd765c6a	-0.060146727
10	0x3c89f3c7	0.016839875
11	0x3d3fed8c	0.0468574
12	0x3d7bb200	0.06144905
13	0xbc6fc78d	-0.014634979
14	0xbd029f52	-0.03189022
15	0x3b664f12	0.0035142344
16	0xbc18e237	-0.009331278
17	0x3d2d1468	0.04225579
18	0x3ce844df	0.028353153
19	0xbc4431db	-0.011974777
20	0x3ccac14b	0.024750372
21	0xbc145d51	-0.0090554515
22	0x3c81ce54	0.015845455
23	0xbc8b5a73	-0.017010903
24	0xbcb923c3	-0.02260006
25	0xbc9b9ec8	-0.018996611
26	0x3cd85ef5	0.026412467
27	0x3d715f7f	0.058928963
28	0xbbbd5ab2	-0.005778634
29	0xbb68754e	-0.003547031
30	0xbd21561b	-0.039388757
31	0x3d9b6a3d	0.07588623
32	0xbd0067cc	-0.03134899
33	0xbc8d7bfb	-0.017271033
34	0xbcbc3f30	-0.022979349
35	0x3cb74785	0.02237297
36	0x3d7295b5	0.059224803
37	0x3cf6be37	0.030119998
38	0xbce9aa3b	-0.028523555
39	0xbd0459b6	-0.032312118
40	0x3be19816	0.006884585
41	0xbd56642e	-0.052341633
42	0xbcecc20f	-0.028901128
43	0xbd06755a	-0.03282676
44	0xbc5627b5	-0.01307099
45	0x3c296e2d	0.010341209
46	0x3d1b6958	0.03794226
47	0x3cc13d6d	0.02358886
48	0xbb8602a1	-0.004089669
49	0xbd3ebb12	-0.046565123
50	0x3cdf511f	0.027260361
51	0x3cfd0b57	0.030889196
52	0x39b40216	0.0003433383
53	0x3ca72ca9	0.020407038
54	0x3c981f82	0.018569712
55	0xbd7351d4	-0.05940421
56	0xbd18b5cb	-0.037282746
57	0xbd02f4e0	-0.031971812
58	0x3d1c3052	0.03813202
59	0x3d1dd932	0.03853721
60	0xbd26c242	-0.040712602
61	0x3cb7872f	0.022403328
62	0xbc89d04d	-0.016822958
63	0xbce6a17f	-0.02815318
64	0x3cc1c04e	0.023651268
65	0x3c99af44	0.018760331
66	0x3c827574	0.015925147
67	0xbccbbfc2	-0.02487171
68	0x3c8b3dab	0.016997179
69	0x3d005954	0.03133519
70	0x3c2065fa	0.009789938
71	0x3d2484e8	0.04016581
72	0x3c87c69d	0.016574198
73	0xbd03a2aa	-0.03213755
74	0x3d13bffc	0.036071762
75	0xbd300718	-0.042975515
76	0xbc662e5c	-0.014049139
77	0x3d07c026	0.03314223
78	0x3dae1475	0.084999956
79	0x3d3d65af	0.04623955
80	0x39012592	0.00012316395
81	0x3c495e21	0.0122905085
82	0xbd5607b5	-0.052253444
83	0x3c073ad8	0.008253776
84	0xbbca7153	-0.00617806
85	0x3c8670b2	0.01641116
86	0x3c9766c7	0.018481625
87	0x3d42676e	0.04746192
88	0xbbe5992e	-0.007006786
89	0xbce5f3b4	-0.028070308
90	0x3cbf0260	0.023316562
91	0x3c7a9cf5	0.015296211
92	0xbd21aa4d	-0.039469052
93	0xbc94ab90	-0.018148214
94	0xbc868808	-0.016422287
95	0xbcf958a7	-0.03043778
96	0x3d130cca	0.03590087
97	0x3c56216b	0.013069491
98	0x3c91c8bc	0.017795913
99	0x3cff2635	0.031146148
100	0x3b685bde	0.0035455148
101	0xbb3e2f4d	-0.0029019893
102	0x3d8f4404	0.06995395
103	0x3d0efc2d	0.034908462
104	0x3cc78a1b	0.024357846
105	0x3c461216	0.012089273
106	0x3d48ce07	0.049024608
107	0xbd907b8b	-0.07054814
108	0x3b5594ef	0.0032589992
109	0xbab3a36a	-0.0013705317
110	0x3ce8920f	0.028389959
111	0xbc85d4a5	-0.016336748
112	0x3cd89ddb	0.026442459
113	0x3c936a6e	0.017995086
114	0xbcb516b1	-0.022105547
115	0xbb18ae3d	-0.0023297213
116	0xbd11fe6b	-0.035643023
117	0x3c170b37	0.009218982
118	0xbd02c977	-0.031930413
119	0x3d250318	0.040286154
120	0x39b2a4d7	0.0003407362
121	0x3d53619d	0.051606763
122	0xbd7aaa9d	-0.061197866
123	0xbd1268d3	-0.0357445
124	0xbc2548dd	-0.010088173
125	0xbc8ae09e	-0.016952809
126	0x3d03f555	0.03221639
127	0xbd315ac8	-0.043299466
128	0x3d1fae5e	0.03898465
129	0xbc115f70	-0.008872852
130	0xbd4047be	-0.04694342
131	0x3c4319b8	0.011907987
132	0x3d19b856	0.037529312
133	0xbc35c7d2	-0.011095004
134	0xbca15689	-0.019694583
135	0xbd259217	-0.040422525
136	0x3d9986bc	0.07496402
137	0xbd3c23d3	-0.045932602
138	0x3ba8aeb8	0.005147781
139	0xbca2407f	-0.019806145
140	0xbd3ac625	-0.04559912
141	0xbb8cb0e4	-0.004293548
142	0xbc9bc169	-0.019013124
143	0xbb9fc0fd	-0.004875301
144	0xbc7df892	-0.015501158
145	0x3c95f791	0.018306525
146	0x3b7f799e	0.0038982402
147	0xbc67bfdc	-0.014144864
148	0x3d03f88e	0.032219462
149	0xbd0eb2c3	-0.03483845
150	0x3cf2ceeb	0.029639682
151	0xbc451858	-0.01202973
152	0x3d8e948c	0.06961927
153	0x3cbafea3	0.022826498
154	0x3c383eb8	0.011245422
155	0x3c800c89	0.015630977
156	0x3d842a1c	0.06453344
157	0xbc61df7c	-0.013786193
158	0x3c554479	0.013016813
159	0xbc091ade	-0.008368222
160	0xbcc2502d	-0.023719871
161	0x3c857545	0.01629127
162	0xbb824355	-0.0039753118
163	0xb9d305a9	-0.00040249273
164	0x3c9e40bf	0.019317983
165	0x3d159574	0.036519483
166	0xbca14b82	-0.019689325
167	0xbc22b151	-0.009929971
168	0x3da957d7	0.08268707
169	0xbd63ea0e	-0.055643134
170	0x3cdf558c	0.027262472
171	0xbc9d6f7c	-0.019218199
172	0x3d3773af	0.04478806
173	0xbcb308e6	-0.021854829
174	0x3d8004f3	0.06250944
175	0xbc10b6bc	-0.00883263
176	0xbd95af60	-0.07308841
177	0x3c80285f	0.01564425
178	0x3d1255ec	0.035726473
179	0xbc11f656	-0.008908829
180	0x3ccb4ba3	0.02481634
181	0xbd2e3d0a	-0.04253868
182	0x3bb5eb13	0.0055517047
183	0xbc6ea23f	-0.01456505
184	0xbc596b21	-0.01327017
185	0x3cefbade	0.02926391
186	0xbceb4a18	-0.028721854
187	0xb848bd40	-4.785997e-05
188	0xbd6a10a1	-0.057144765
189	0xbd120e0f	-0.03565794
190	0xbcc10529	-0.02356203
191	0xbccab9e6	-0.024746846
192	0xbd4e0962	-0.050301917
193	0xbd1502b9	-0.03637955
194	0x3c7d47a2	0.015458973
195	0x3d86ff73	0.06591692
196	0x3d2d2030	0.042267025
197	0xba60312f	-0.0008552251
198	0xb9f6dd6e	-0.00047085754
199	0x3d945484	0.072426826
200	0xbcff5de2	-0.031172697
201	0xbace268c	-0.0015728041
202	0xbcdec159	-0.027191805
203	0xbd173bb3	-0.036922168
204	0xbc615ac9	-0.013754555
205	0x3cf75a29	0.030194359
206	0x391a1a90	0.0001469648
207	0x3cc84fd9	0.024452137
208	0x3c9afb8e	0.018918779
209	0xbc7a215e	-0.015266744
210	0x3d302d33	0.043011855
211	0x3c9836d5	0.018580833
212	0x3d01febc	0.031737074
213	0x3d1eb312	0.038744994
214	0xbd42509c	-0.047440156
215	0x3cd7383a	0.026271928
216	0x3d2ab279	0.04167411
217	0x3d18f5cb	0.03734378
218	0xbc7466fa	-0.01491713
219	0x3a14783d	0.0005663669
220	0xbd83c563	-0.06434133
221	0xbcf7e179	-0.03025888
222	0xbd19defa	-0.037566163
223	0xbbfa5734	-0.00763979
224	0x3a2decb1	0.0006634696
225	0xbcabf66c	-0.020991527
226	0x3bde264b	0.006779467
227	0xbb88a9b1	-0.0041706194
228	0x3caa49f8	0.020787224
229	0x3c51dccd	0.012808991
230	0xbd9b5dc1	-0.075862415
231	0x3cee22a2	0.029069249
232	0xbcf6f841	-0.030147674
233	0x3bbf2b9d	0.0058340565
234	0x3cf32293	0.029679572
235	0x3b470164	0.003036582
236	0x3c03d6c2	0.008046808
237	0x3ca00903	0.019535547
238	0x3d08b593	0.033376288
239	0x3cab6074	0.020920016
240	0xba7fe5b8	-0.0009761709
241	0x3d98cad9	0.07460565
242	0x3d35f4c0	0.044422865
243	0xbc564594	-0.013078112
244	0xbce1119e	-0.02747422
245	0x3d674b8c	0.05646853
246	0xbd07ebac	-0.03318374
247	0xbce25b11	-0.027631314
248	0xbbc051af	-0.0058691124
249	0x3bdd38f8	0.006751176
250	0xbca021a7	-0.019547297
251	0xbd27f6e0	-0.041006923
252	0x3cbe4a81	0.023228886
253	0xbb4332eb	-0.0029784988
254	0xbd06b21d	-0.032884706
255	0xbd7aacb6	-0.061199866

bias f4 [200]
0	0x3cf6d230	0.030129522
1	0xbcbc66f1	-0.022998305
2	0x3a751a43	0.00093499216
3	0x3a272a2d	0.0006376829
4	0xbcbdeb51	-0.023183497
5	0x3bdc9669	0.0067317975
6	0xbb881486	-0.004152837
7	0xbb4bdd97	-0.003110742
8	0x3cd01307	0.025399698
9	0x3c5607a7	0.013063348
10	0xbca43d34	-0.020048715
11	0xbcccf460	-0.02501887
12	0xbcda78b2	-0.02666888
13	0x3cb97d42	0.022642735
14	0x3c4d60f8	0.012535326
15	0xbb6df9a6	-0.0036312132
16	0xbb64cd53	-0.0034912422
17	0xbb96e3c8	-0.0046047904
18	0x3b35561e	0.0027669738
19	0xbb1003ba	-0.0021974877
20	0x3d0c2a76	0.03422018
21	0x3bd67666	0.006544876
22	0x3caf8abd	0.02142846
23	0xbc816caa	-0.015798885
24	0xbc3cd63d	-0.011525688
25	0xbc8310af	-0.015999166
26	0xbbdec4c3	-0.006798358
27	0x3adb2b31	0.0016721246
28	0xbc2b6535	-0.010461141
29	0xbca896c4	-0.020579703
30	0x3cd3d541	0.025858523
31	0xbccf439f	-0.025300799
32	0xbcf943be	-0.03042781
33	0x3ca3c9f5	0.019993762
34	0xbc92ef43	-0.017936355
35	0x3c14ef0b	0.009090195
36	0xbbb78835	-0.005600954
37	0x3ceeab86	0.029134523
38	0xbb4c5d84	-0.003118367
39	0x3cf351f4	0.029702164
40	0xbd0a43ec	-0.03375618
41	0x3b96b017	0.0045986283
42	0x3ce7b1ea	0.028283078
43	0x3c1da2d9	0.009621345
44	0x3d04f47a	0.032459714
45	0xbccb0fc3	-0.02478779
46	0xbca6160c	-0.020274185
47	0x3a9d59da	0.0012004927
48	0xbc2ce0df	-0.01055166
49	0xbc970d71	-0.018439027
50	0x3ba757b4	0.0051068906
51	0x3c68c46c	0.014206987
52	0xbc46070c	-0.012086641
53	0xbbba3250	-0.0056822672
54	0xbc637ab3	-0.013884234
55	0xbcdfbe55	-0.027312437
56	0xbcca5948	-0.024700776
57	0xbb4f2122	-0.0031605442
58	0xbd009b5e	-0.03139817
59	0x3bb9f639	0.005675104
60	0xbce71e65	-0.028212735
61	0x3ccaa2f1	0.0247359
62	0x3cdc7c27	0.02691467
63	0xbc10d762	-0.008840414
64	0xbc9faafe	-0.019490715
65	0x3c64f73c	0.013974961
66	0xbcbe0161	-0.023194017
67	0x3b8bc457	0.004265349
68	0xbc91c2b8	-0.017793044
69	0xbcb2c335	-0.021821598
70	0xbc8e8270	-0.017396182
71	0xbc855787	-0.016277088
72	0x3c319606	0.010838991
73	0x3ad969e6	0.0016587346
74	0xbc475cfa	-0.012168163
75	0xbbd34e5f	-0.0064485515
76	0xbba22189	-0.0049478454
77	0xbc71aa30	-0.0147500485
78	0x3b5e64db	0.0033934626
79	0x3ab3eec3	0.0013727773
80	0x3cc0fb2c	0.023557268
81	0x3c9dc5ee	0.01925942
82	0xbc44632f	-0.011986538
83	0xbb2f00be	-0.0026703323
84	0xbc888201	-0.016663553
85	0x3d067d48	0.03283432
86	0x3d1302cc	0.03589134
87	0xbb59639e	-0.0033170949
88	0xbcea2d6c	-0.028586112
89	0xbc19c113	-0.009384411
90	0x3b86f7be	0.0041188886
91	0xbbd7702d	-0.0065746517
92	0x3cc78ad9	0.0243582
93	0xbcb4f56e	-0.022089686
94	0x3b805ada	0.0039170804
95	0x3d0ad587	0.03389504
96	0xbcc5d660	-0.024150074
97	0x3c6a8182	0.014313104
98	0x3c40767d	0.011747
99	0xbc54a15b	-0.012977923
100	0x3cc4abb1	0.02400765
101	0x3c669677	0.01407396
102	0xbc8ba03d	-0.017044181
103	0x3c8eee93	0.017447745
104	0xbcd479db	-0.025937011
105	0x3c76fb9e	0.015074639
106	0xbc15969b	-0.009130145
107	0x3c67f1af	0.014156743
108	0x3cd9f99f	0.026608286
109	0x3c9aad95	0.018881598
110	0x3c0303ff	0.007996558
111	0xbbac4141	-0.0052568023
112	0xbb979253	-0.0046255975
113	0xbcd35ff5	-0.025802592
114	0xbc8ae590	-0.016955167
115	0x3b7eea92	0.003889714
116	0xbc8b82e6	-0.01703019
117	0xbd0493ab	-0.03236739
118	0x3c794cfa	0.015216107
119	0x3ce287fa	0.02765273
120	0x3c177af3	0.009245622
121	0xbd15e304	-0.036593452
122	0xba313022	-0.00067591865
123	0xbcdc3172	-0.026879046
124	0x3d0d48e6	0.03449335
125	0xbbf979ce	-0.007613397
126	0xbcad74bf	-0.021173833
127	0x3c80d1a6	0.015724968
128	0x3ccbe733	0.024890518
129	0x3c980c8e	0.018560674
130	0x3cb9b77a	0.022670496
131	0xba360a02	-0.00069442403
132	0x3cec462c	0.028842054
133	0xb859c008	-5.1915675e-05
134	0x3cc9207e	0.024551626
135	0x3cb20846	0.02173246
136	0x3b75551d	0.0037434765
137	0x3c95e441	0.018297317
138	0x3c4abf5f	0.012374728
139	0x3caa3899	0.020778941
140	0x3cc03e58	0.023467228
141	0xbd0b3700	-0.033988
142	0x3b80b576	0.003927882
143	0x3c46871c	0.0121171735
144	0xbcba02a8	-0.022706345
145	0xbcdb7107	-0.026787294
146	0x3c755ef3	0.014976251
147	0x3c13655a	0.008996332
148	0x3c259aea	0.010107735
149	0x3cef3592	0.029200349
150	0x3c84dcbc	0.016218536
151	0x3c31afd2	0.0108451415
152	0x3ccd0832	0.025028322
153	0xbb76d91b	-0.0037666026
154	0x3cc648a7	0.024204565
155	0xbad751e6	-0.0016427606
156	0x3d00076c	0.031257078
157	0xbb585b52	-0.0033013416
158	0x3c8b46b5	0.01700149
159	0xbc0c6a71	-0.0085702995
160	0xbc84ffb6	-0.016235214
161	0x3c08d901	0.008352519
162	0xbc44ac44	-0.012003962
163	0x3c944c41	0.018102767
164	0xbcaa10f5	-0.020760039
165	0x3a1a8eee	0.0005895932
166	0xbc16d0d2	-0.00920506
167	0xbb834a3f	-0.0040066536
168	0xbc1208e7	-0.008913255
169	0x3cd51847	0.026012553
170	0x3ba0d736	0.0049084676
171	0xbc58d7fb	-0.0132350875
172	0x3d188e74	0.03724523
173	0xbce46d1e	-0.027884062
174	0xbcfb8f85	-0.030708084
175	0x3c6df85f	0.014524548
176	0x3ca9dab9	0.020734178
177	0xbb6c03ef	-0.0036013087
178	0x3c858cea	0.016302545
179	0x3bf501ca	0.00747702
180	0xbcc63881	-0.024196865
181	0x3c370e23	0.011172804
182	0xbc1cdc1c	-0.009573963
183	0xbc460f8b	-0.012088667
184	0xbc8ab347	-0.01693119
185	0xbba84f0c	-0.0051363762
186	0xbb4956b0	-0.0030721836
187	0x3cd508f8	0.026005253
188	0xbcf359b1	-0.029705854
189	0xbd0816d8	-0.03322491
190	0xbcae972a	-0.021312315
191	0xbc881066	-0.016609382
192	0xbb883915	-0.0041571953
193	0xbc06c712	-0.008226173
194	0xbb53dae5	-0.0032326516
195	0x3c6d5437	0.01448541
196	0x3cdeb2ad	0.027184809
197	0x3d09d483	0.033649933
198	0x3bd7ec9a	0.0065894844
199	0x3cf99da0	0.03047067

weight f4 [5, 200]
0	0x3e0013fd	0.12507625
1	0x3e162f95	0.14666589
2	0xbdb2ddb7	-0.08733695
3	0x3e04acbf	0.12956522
4	0x3d2a27bb	0.041541796
5	0xbda855a9	-0.082194634
6	0x3d187580	0.03722143
7	0x3a893130	0.001046693
8	0x3e05662b	0.13027255
9	0x3dd99d7e	0.106257424
10	0xbde50d0a	-0.11184128
11	0x3daab4b4	0.08335248
12	0xbd00cac8	-0.031443387
13	0xbdbdce97	-0.092679195
14	0x3e22080f	0.15823387
15	0xbc2c8a1a	-0.010530973
16	0x3d77456d	0.060368944
17	0x3df5eead	0.120084144
18	0xbd1205ed	-0.035650183
19	0xbe01e58c	-0.12685221
20	0x3da42766	0.08015327
21	0xbd0623f4	-0.03274913
22	0x3dffaa4a	0.12483652
23	0x3e192e27	0.14959012
24	0x3d92cd20	0.07168031
25	0xbd467374	-0.04844995
26	0xbd5ddaf7	-0.0541639
27	0xbdbdce82	-0.09267904
28	0xbd1e4f46	-0.03864982
29	0x3df9c84b	0.12196406
30	0x3d93e5f6	0.07221596
31	0xbdabfd11	-0.08397878
32	0x3de9e42b	0.11420473
33	0x3e14a0b6	0.14514431
34	0x3de2861e	0.11060737
35	0xb9ea7ae5	-0.00044723522
36	0xbd1b62ae	-0.037935905
37	0xbda70e38	-0.08157009
38	0xbd31452e	-0.043278866
39	0xbdadb341	-0.084814556
40	0x3de9e7a7	0.11421137
41	0x3ddc0c39	0.10744519
42	0xbd45b547	-0.048268583
43	0x3e0c2468	0.13685763
44	0x3e0090a1	0.12555172
45	0xbc5cc1e5	-0.013473962
46	0x3d3aa334	0.0455658
47	0x3db2c0bd	0.08728168
48	0x3df8ecf9	0.12154574
49	0x3c2de108	0.010612734
50	0x3cd28a14	0.025700606
51	0x3df97ac5	0.121816196
52	0x3db9154a	0.09037264
53	0x3e05431d	0.13013883
54	0xbd641b53	-0.05569012
55	0x3e027094	0.12738258
56	0x3dafe4e7	0.085885815
57	0xbdb8a3af	-0.09015595
58	0x3d0468a1	0.032326344
59	0x3d6abfab	0.057311695
60	0x3d42be1a	0.047544576
61	0x3e286eb1	0.16448475
62	0xbd9c04dc	-0.07618114
63	0x3e057454	0.13032657
64	0xbdbbabaf	-0.091636054
65	0xbdb2b0e6	-0.08725147
66	0xbd007dad	-0.031369854
67	0xbcf13900	-0.029446125
68	0x3cd875cc	0.026423357
69	0x3e1996f9	0.14998998
70	0x3e135dad	0.14391203
71	0xbd9a3a92	-0.07530703
72	0x3ded4ce5	0.11586932
73	0x3dbda3fd	0.09259794
74	0x3d8fbd1f	0.07018494
75	0xbd1a97db	-0.037742477
76	0x3dd36571	0.10322083
77	0x3dc66d18	0.09688777
78	0xbdcab0e8	-0.098970234
79	0x3cd006fc	0.025393955
80	0x3daba64c	0.08381328
81	0x3e208545	0.15675838
82	0xbd312bc7	-0.04325464
83	0xbd56dac0	-0.05245471
84	0x3e0fd54f	0.14046215
85	0x3dd1e7e2	0.10249306
86	0xbe00500e	-0.12530538
87	0x3df46858	0.119339645
88	0x3da88400	0.08228302
89	0xbdbbbd94	-0.091670185
90	0xbd0e777e	-0.034781925
91	0x3db253e8	0.0870741
92	0xbdb428ea	-0.08796866
93	0xbdf3455d	-0.11878464
94	0xbd73c747	-0.059516218
95	0x3e02bda1	0.1276765
96	0x3e0a3176	0.1349543
97	0x3dfb46a3	0.12269332
98	0x3e22d1bc	0.1590032
99	0xbd5670cd	-0.05235367
100	0x3e030da5	0.12798174
101	0x3c77c673	0.015122998
102	0xbdbcb668	-0.09214479
103	0xbc131eac	-0.008979481
104	0xbdefac61	-0.117028005
105	0x3e063365	0.13105543
106	0xbc88b3b0	-0.016687244
107	0x3dad2d33	0.08455887
108	0x3dae3eef	0.085080974
109	0x3e0d261c	0.13784069
110	0xbde4aefc	-0.11166188
111	0xbe0416e7	-0.12899362
112	0x3d89e5f5	0.06733314
113	0x3d50ce08	0.050977737
114	0x3e2165b2	0.1576145
115	0xbdfb628c	-0.12274656
116	0x3dd9df15	0.10638253
117	0xbd5aee28	-0.05344978
118	0xbdcebca7	-0.10094576
119	0xbdc7970f	-0.09745609
120	0xbd4c2c5f	-0.049847003
121	0x3e0ceffd	0.13763423
122	0xbdaf7dfc	-0.085689515
123	0xbdaad427	-0.08341246
124	0xbd375803	-0.04476167
125	0x3e09386e	0.13400432
126	0x3cff5599	0.031168746
127	0x3def7cd7	0.11693733
128	0x3e236ec0	0.15960217
129	0xbdf84185	-0.12121872
130	0x3de6f82a	0.11277802
131	0x3d4b18ab	0.049584072
132	0x3ddc2034	0.1074833
133	0x3dffc3bc	0.12488505
134	0xbd1ea607	-0.038732555
135	0x3de07a6a	0.10960849
136	0xbda4888a	-0.08033855
137	0x3d6f88ac	0.05847995
138	0x3e034d89	0.12822546
139	0x3e02682f	0.12735055
140	0xbcec930b	-0.02887871
141	0x3dc75e82	0.09734823
142	0x3e07a96c	0.13248223
143	0xbd1ab3b4	-0.037769035
144	0x3a4488bc	0.00074971817
145	0xbcf2d50b	-0.029642602
146	0x3db2fcac	0.087395996
147	0xbdd0fb5a	-0.102041915
148	0x3d32bbf7	0.04363629
149	0x3d960e52	0.0732695
150	0x3d2cca7a	0.042185284
151	0xbdcf7925	-0.10130528
152	0x3dcaed34	0.09908524
153	0xbc9a4e50	-0.01883617
154	0x3dfd88ae	0.12379585
155	0xbd437910	-0.047722876
156	0x3dc14c28	0.09438354
157	0x3df14e16	0.11782472
158	0x3e1ad225	0.15119226
159	0xbd781efb	-0.06057642
160	0x3daffce3	0.08593156
161	0x3d9b24ae	0.075753555
162	0x3dfa720c	0.12228784
163	0x3dd393a3	0.10330894
164	0x3d8e45b2	0.06946887
165	0xbdf078b6	-0.11741774
166	0xbd01c845	-0.031685133
167	0xbc8cbd3d	-0.01718008
168	0xbd6324c8	-0.055455
169	0xbd95a961	-0.07307697
170	0x3dc66e03	0.09688952
171	0x3d3afcde	0.04565131
172	0x3e19b3ca	0.1500999
173	0xbd9e3261	-0.07724453
174	0xbdb8a5cf	-0.090160005
175	0x3e18189c	0.14853138
176	0x3dc34c5b	0.09536048
177	0x3e0deb60	0.1385932
178	0x3da8e180	0.08246136
179	0xbd5c8874	-0.05384107
180	0xbd8419f8	-0.06450266
181	0x3d7a780a	0.061149634
182	0x3e00b180	0.12567711
183	0xbdc36e31	-0.09542502
184	0x3dd41408	0.10355383
185	0x3d8fb5e5	0.070171155
186	0xbdb35ac9	-0.0875755
187	0xbdac5806	-0.08415227
188	0x3da8cf89	0.08242709
189	0x3de47e55	0.111569084
190	0xbdfe3106	-0.12411694
191	0x3e1d3297	0.1535133
192	0x3db1308b	0.08651837
193	0x3e1774c5	0.14790638
194	0x3b20287f	0.00244382
195	0xbdbd6435	-0.092476286
196	0xbdbb1580	-0.0913496
197	0x3daaaa61	0.083332784
198	0x3e0d90ab	0.13824718
199	0x3c83dc43	0.01609624
200	0xbdc0dd1f	-0.094171755
201	0xbd07ca93	-0.033152174
202	0x3e059aca	0.13047329
203	0xbdc4aac2	-0.09602882
204	0xbdbce8f2	-0.09224118
205	0x3de03bb9	0.10948891
206	0x3d06090d	0.032723475
207	0x3db06c64	0.08614424
208	0xbc0598bd	-0.008154091
209	0xbda95867	-0.082688145
210	0x3e179432	0.14802626
211	0x3d8b0a0b	0.06789025
212	0x3e12fefd	0.14355083
213	0x3decf892	0.115708485
214	0xbd47108c	-0.048599765
215	0x3e104027	0.14086972
216	0xbe1370bb	-0.14398472
217	0xbd98973d	-0.074507214
218	0x3df6eac2	0.12056495
219	0x3ded094e	0.1157404
220	0xbdd678ea	-0.10472281
221	0x3e0fbe25	0.14037378
222	0xbdaa4c34	-0.08315316
223	0xbd049f65	-0.032378573
224	0xbe04d1e9	-0.129707
225	0x3e0d6640	0.13808537
226	0x3e03e769	0.12881245
227	0x3ddaf696	0.10691564
228	0x3d9f8409	0.077888556
229	0xbd21a37e	-0.03946256
230	0xbc1f6fd5	-0.009731253
231	0x3e158d76	0.14604744
232	0xbdb03c22	-0.086052194
233	0xbdf6ef2a	-0.12057336
234	0xbd4ddede	-0.05026137
235	0x3dea1a48	0.11430794
236	0x3e1db8db	0.15402548
237	0x3b6ab2e0	0.0035812184
238	0x3e074502	0.13209918
239	0x3de9b913	0.11412253
240	0xbd5d0c5f	-0.053966876
241	0xbdeeb843	-0.11656239
242	0x3e22ee38	0.15911186
243	0x3cebd97e	0.028790232
244	0xbe05592f	-0.13022302
245	0x3ddd911c	0.10818693
246	0xbd94d0c3	-0.07266381
247	0xbd63a03c	-0.055572733
248	0x3c79ce5d	0.015246955
249	0x3e0d85b5	0.13820536
250	0x3e18f693	0.1493781
251	0xbd43eed6	-0.047835194
252	0x3d12f852	0.035881348
253	0xbdd8dd74	-0.10589114
254	0x3deee3f5	0.11664573
255	0xbdbbf587	-0.0917769

bias f4 [5]
0	0x3d346722	0.044043668
1	0x3cad851e	0.02118164
2	0xbb379733	-0.0028013706
3	0xbc9802ba	-0.018555988
4	0xbcad5ad7	-0.02116148

weight f4 [200]
0	0x3f93697b	1.1516565
1	0x3f8d0a41	1.1018754
2	0x3f891091	1.0708181
3	0x3f8e37d1	1.1110784
4	0x3f8b490e	1.088167
5	0x3f8a5277	1.0806416
6	0x3f9788ec	1.183866
7	0x3f8bc70a	1.0920117
8	0x3f8d39ca	1.1033261
9	0x3f8f040c	1.117311
10	0x3f8bb5b8	1.0914831
11	0x3f8f8e20	1.1215248
12	0x3f8e0748	1.1095972
13	0x3f880023	1.0625042
14	0x3f9894b5	1.1920382
15	0x3f93ce30	1.1547298
16	0x3f8cf897	1.1013364
17	0x3f901fde	1.1259725
18	0x3f915bf6	1.1356189
19	0x3f8ee187	1.1162575
20	0x3f89240b	1.0714124
21	0x3f90b5b4	1.1305451
22	0x3f8f2662	1.1183589
23	0x3f8dbc7f	1.107315
24	0x3f8cac33	1.0990051
25	0x3f8f879c	1.121326
26	0x3f89f36d	1.0777413
27	0x3f884982	1.0647433
28	0x3f8b6942	1.0891497
29	0x3f8eb098	1.1147642
30	0x3f921b22	1.141453
31	0x3f8ad4fe	1.084625
32	0x3f939eba	1.1532815
33	0x3f8c00d0	1.0937748
34	0x3f8ba7b4	1.0910554
35	0x3f8f5bf4	1.1199937
36	0x3f911926	1.13358
37	0x3f8fede5	1.1244475
38	0x3f91d322	1.1392558
39	0x3f88311d	1.0639988
40	0x3f8b2981	1.0872041
41	0x3f8ac7d1	1.0842229
42	0x3f923f46	1.142556
43	0x3f8c93d1	1.098261
44	0x3f8e6628	1.1124926
45	0x3f8a3497	1.0797299
46	0x3f8f7780	1.1208344
47	0x3f86cfbe	1.0532148
48	0x3f8b1942	1.0867083
49	0x3f949a24	1.160954
50	0x3f904946	1.1272361
51	0x3f8d15fb	1.1022333
52	0x3f8dd787	1.1081399
53	0x3f8e181c	1.1101108
54	0x3f87aaba	1.0598977
55	0x3f8a2520	1.079258
56	0x3f9039ee	1.1267679
57	0x3f8fe71d	1.1242405
58	0x3f87082d	1.054937
59	0x3f893074	1.0717912
60	0x3f8e951c	1.1139255
61	0x3f93e618	1.1554594
62	0x3f924e5a	1.1430161
63	0x3f904300	1.1270447
64	0x3f8971fd	1.0737911
65	0x3f8e8fc3	1.1137623
66	0x3f907270	1.1284924
67	0x3f910754	1.1330361
68	0x3f85f185	1.0464331
69	0x3f8c7957	1.097453
70	0x3f8dbe58	1.1073713
71	0x3f86568b	1.0495161
72	0x3f8b7811	1.0896016
73	0x3f8caefe	1.0990903
74	0x3f8d7e01	1.1054078
75	0x3f93fc1a	1.156131
76	0x3f8aa2cc	1.0830932
77	0x3f94be02	1.1620486
78	0x3f8bdafe	1.0926206
79	0x3f8c335c	1.0953174
80	0x3f8bed02	1.0931704
81	0x3f901ee7	1.1259431
82	0x3f8bd4f9	1.0924369
83	0x3f94103b	1.1567453
84	0x3f903fe3	1.1269497
85	0x3f94175f	1.1569632
86	0x3f8a3a4c	1.0799041
87	0x3f90ce1c	1.13129
88	0x3f9066ec	1.1281409
89	0x3f8b5c29	1.08875
90	0x3f8608a5	1.0471388
91	0x3f8c44b0	1.0958462
92	0x3f86562a	1.0495045
93	0x3f8ebe6a	1.115186
94	0x3f89d6b0	1.0768642
95	0x3f8e5d09	1.1122142
96	0x3f926ccb	1.1439451
97	0x3f8eba94	1.1150689
98	0x3f9102ac	1.132894
99	0x3f904b9e	1.1273077
100	0x3f8fd595	1.1237055
101	0x3f8b3c15	1.087771
102	0x3f8fd9b8	1.1238317
103	0x3f92bff7	1.1464833
104	0x3f89e342	1.0772479
105	0x3f8c8abc	1.0979838
106	0x3f8b65f0	1.0890484
107	0x3f8a26cc	1.079309
108	0x3f87caa6	1.0608718
109	0x3f893831	1.0720273
110	0x3f8766a3	1.0578197
111	0x3f90f986	1.1326149
112	0x3f8a901a	1.0825226
113	0x3f890d34	1.0707154
114	0x3f8fbb10	1.1228962
115	0x3f8dc7f3	1.1076645
116	0x3f91e2d7	1.1397351
117	0x3f899f0b	1.0751661
118	0x3f898ba7	1.0745744
119	0x3f87d0c1	1.0610582
120	0x3f89fab3	1.0779632
121	0x3f8e22ee	1.110441
122	0x3f8954cb	1.0729002
123	0x3f8b2332	1.0870116
124	0x3f8fe196	1.1240718
125	0x3f8c53cc	1.0963073
126	0x3f9034de	1.1266134
127	0x3f8cb22b	1.0991873
128	0x3f9399de	1.1531332
129	0x3f930688	1.1486368
130	0x3f91c487	1.13881
131	0x3f8864a2	1.0655711
132	0x3f92193d	1.1413952
133	0x3f90b9c3	1.130669
134	0x3f93ab7c	1.1536708
135	0x3f88ce0e	1.0687883
136	0x3f889082	1.06691
137	0x3f8d0616	1.1017482
138	0x3f93a889	1.1535808
139	0x3f8f165f	1.1178702
140	0x3f933560	1.1500664
141	0x3f8ba425	1.0909468
142	0x3f8cb3e7	1.0992402
143	0x3f8dbc87	1.1073159
144	0x3f934e43	1.1508259
145	0x3f8b66ee	1.0890787
146	0x3f8e6140	1.1123428
147	0x3f88494d	1.064737
148	0x3f8dce6d	1.1078621
149	0x3f8fbdb3	1.1229767
150	0x3f8a3a48	1.0799036
151	0x3f8707ed	1.0549294
152	0x3f90571b	1.1276582
153	0x3f956c4d	1.1673676
154	0x3f8dd483	1.1080478
155	0x3f8d84e2	1.1056178
156	0x3f923636	1.1422794
157	0x3f8d6e45	1.1049277
158	0x3f942210	1.1572895
159	0x3f89975f	1.074932
160	0x3f95ea78	1.1712179
161	0x3f88dc8b	1.0692304
162	0x3f906b72	1.128279
163	0x3f8dec9f	1.1087836
164	0x3f9b7cfd	1.2147518
165	0x3f8a0cbe	1.0785139
166	0x3f8b093a	1.0862191
167	0x3f9364ef	1.1515177
168	0x3f8bf901	1.0935365
169	0x3f876468	1.0577517
170	0x3f8b40d1	1.0879155
171	0x3f8a76e6	1.0817535
172	0x3f8d4f88	1.1039896
173	0x3f8afe01	1.0858766
174	0x3f86a9e4	1.0520597
175	0x3f8d6727	1.1047105
176	0x3f8e399b	1.111133
177	0x3f8a28d0	1.0793705
178	0x3f8e10dc	1.1098895
179	0x3f921bb2	1.1414702
180	0x3f90a872	1.1301405
181	0x3f881a7b	1.0633081
182	0x3f8e7874	1.1130509
183	0x3f8a45ab	1.0802511
184	0x3f8c7daf	1.0975856
185	0x3f97c128	1.1855822
186	0x3f90a0d9	1.1299087
187	0x3f87214f	1.055704
188	0x3f89d9a0	1.0769539
189	0x3f8b0d2a	1.0863392
190	0x3f8aa0ab	1.0830282
191	0x3f941dbf	1.1571578
192	0x3f8a8436	1.0821598
193	0x3f8cc73a	1.0998299
194	0x3f9197c8	1.1374445
195	0x3f8adc63	1.0848507
196	0x3f89c9f2	1.0764754
197	0x3f8a4f70	1.0805492
198	0x3f8b9337	1.0904301
199	0x3f938657	1.1525372

bias f4 [200]
0	0xbd0f4d63	-0.03498591
1	0xbd58ce7d	-0.052931298
2	0xbdd8b5ed	-0.105815746
3	0xbd98f119	-0.07467861
4	0xbdb0082d	-0.085953094
5	0xbdb8ee44	-0.090298206
6	0x3d8c0dca	0.068385676
7	0xbc4aa30c	-0.012367975
8	0xbd524463	-0.05133475
9	0xbdcefb2c	-0.10106501
10	0xbdc11149	-0.09427125
11	0x3d229af7	0.039698567
12	0xbd5e3bf9	-0.054256413
13	0xbd8a7566	-0.06760673
14	0xbd48ea1f	-0.0490514
15	0xbcba5d08	-0.022749439
16	0xbd947abb	-0.072499715
17	0xbd0dc476	-0.034611188
18	0xbcc2bb66	-0.023771
19	0xbd926d22	-0.07149722
20	0xbd3101d3	-0.04321463
21	0xbd651545	-0.055928487
22	0xbd4be0ef	-0.04977506
23	0xbd409ae1	-0.047022704
24	0xbdf0ad71	-0.11751831
25	0xbd75d77e	-0.060019962
26	0xbda1d8bb	-0.07902666
27	0xbddcbcbb	-0.10778185
28	0xbd2603dd	-0.040531028
29	0xbd3c8676	-0.04602667
30	0x3d19d051	0.03755218
31	0xbd6ef237	-0.058336463
32	0xbd278f17	-0.040907945
33	0xbd97e49a	-0.07416649
34	0xbd98bcb2	-0.07457866
35	0x3c7185d3	0.014741379
36	0xbd285a2b	-0.041101616
37	0xbd5b2eb9	-0.053511355
38	0xbd35fc7e	-0.04443025
39	0xbdbeabf0	-0.09310138
40	0xbd0b9bc1	-0.034084085
41	0xbdc7d9c9	-0.09758336
42	0xbd8aa9e8	-0.06770688
43	0x3c7c2862	0.015390487
44	0xbd741f71	-0.059600297
45	0xbdb58194	-0.08862606
46	0xbda82b2e	-0.08211361
47	0xbd8d64c5	-0.06903986
48	0xbcf8339f	-0.030298052
49	0xbbe41a98	-0.006961178
50	0x3cd7eabf	0.026357053
51	0xbd08c246	-0.0333884
52	0x3d5b9663	0.053610217
53	0xbd7bb781	-0.0614543
54	0xbdeadf91	-0.11468423
55	0xbd7fb4ca	-0.062428273
56	0xbd7272e4	-0.0591916
57	0xbda8f99d	-0.08250735
58	0xbdef9e9a	-0.11700173
59	0xbdb6774e	-0.08909474
60	0x3ca1a8f9	0.019733893
61	0xbd3f5815	-0.04671486
62	0xbd6df2e4	-0.058092967
63	0xbc9e0708	-0.019290462
64	0xbdbe2644	-0.09284642
65	0xbda2ef78	-0.07955831
66	0xbca8cca8	-0.0206054
67	0xbc937fd7	-0.018005295
68	0xbdbee29a	-0.093205646
69	0xbda371ae	-0.07980667
70	0xbde1edbf	-0.110316746
71	0xbd967e47	-0.07348304
72	0x3c0e297c	0.008676883
73	0xbd246faf	-0.040145572
74	0x3d6a9bfd	0.05727767
75	0x3b110c85	0.0022132706
76	0xbddfe772	-0.109328166
77	0xbd5b7456	-0.053577743
78	0xbd95d7aa	-0.07316525
79	0x3cf30668	0.02966614
80	0xbd9d6de0	-0.076869726
81	0xbc299d3e	-0.010352431
82	0x3bcde693	0.00628359
83	0xbdd30aaf	-0.10304772
84	0xbd2cfaaf	-0.042231258
85	0xbd2bd2bf	-0.04194903
86	0xbdb73872	-0.08946313
87	0xbd96ac44	-0.07357076
88	0xbd171f1d	-0.036894906
89	0xbda70909	-0.0815602
90	0xbde56c90	-0.11202347
91	0x3ce51f14	0.02796892
92	0xbdc5dc29	-0.09661133
93	0xbd9414ec	-0.07230553
94	0xbda75a4a	-0.08171518
95	0xbda99da8	-0.08282024
96	0xbc648a31	-0.013948963
97	0xbd670177	-0.05639788
98	0xbd80ac07	-0.062828116
99	0xbcf8a447	-0.030351771
100	0xbca77fee	-0.020446744
101	0x3c57ae8b	0.013164173
102	0xbdb2cc07	-0.087303214
103	0x3c35c13b	0.011093433
104	0xbdb3a8e1	-0.087724455
105	0xbd23fa03	-0.04003335
106	0xbd7a9141	-0.06117368
107	0xbe0fa441	-0.14027502
108	0xbdc9e1be	-0.0985751
109	0xbdcba821	-0.099441774
110	0xbdd1caa7	-0.10243731
111	0xbd99446c	-0.074837536
112	0xbd6113ba	-0.054950453
113	0xbda3ba37	-0.07994502
114	0xbd3e1614	-0.046407774
115	0xbdc0dedb	-0.09417506
116	0xbd47d8db	-0.048790794
117	0xbdb37eaa	-0.08764394
118	0xbdb051a7	-0.08609324
119	0xbdf373b0	-0.118873
120	0xbdadb612	-0.08481993
121	0xbd7f3bbb	-0.062312823
122	0xbd8f199b	-0.06987306
123	0xbda4c55c	-0.08045456
124	0xbc593d9a	-0.013259316
125	0xbdc1d5b0	-0.09464586
126	0x3acae322	0.0015479068
127	0xbd601148	-0.05470398
128	0xbd2b09ef	-0.04175752
129	0xbd90f96e	-0.07078825
130	0xbd06df77	-0.032927956
131	0xbd81007d	-0.06298921
132	0xbce5706b	-0.028007707
133	0xbdb8b58f	-0.090190046
134	0xbd3212e1	-0.043475036
135	0xbd64e682	-0.055883892
136	0xbd7b662e	-0.061376743
137	0xbdb9eea9	-0.09078724
138	0x3b685afb	0.003545462
139	0xbd3122e1	-0.043246154
140	0xbc44710a	-0.011989841
141	0xbd3e6364	-0.046481505
142	0xbd82ba3d	-0.063831784
143	0xbd924703	-0.07142451
144	0x3c6c6d1e	0.014430312
145	0xbd5ac394	-0.053409174
146	0xbd53fafb	-0.051753026
147	0xbdb1137f	-0.08646297
148	0x3d7eda88	0.062220126
149	0x3d5ef165	0.05442943
150	0xbddb0601	-0.106945045
151	0xbddbe455	-0.1073691
152	0xbd1eba41	-0.038751844
153	0xbd0bf32d	-0.034167457
154	0xbda701a2	-0.08154608
155	0xbd9a1c69	-0.0752495
156	0xbdb6c232	-0.089237586
157	0xbdc8894a	-0.09791811
158	0xbd0a9be0	-0.03384006
159	0xbda206d1	-0.079114564
160	0xbd014c9b	-0.031567197
161	0x3d221376	0.03956934
162	0xbd733ce8	-0.059384257
163	0xbe00653a	-0.12538615
164	0xbb81bc37	-0.0039592045
165	0xbdaa1595	-0.08304898
166	0xbcb0aa0f	-0.021565465
167	0xbd4d572f	-0.050131973
168	0xbd925536	-0.07145159
169	0xbdd3991c	-0.10331938
170	0x3d5bd0eb	0.053666037
171	0xbd8a5912	-0.0675527
172	0xbd8d297a	-0.06892677
173	0xbde8e0f3	-0.11371031
174	0xbd870dae	-0.06594406
175	0xbd4ab323	-0.049487244
176	0xbd16c0b7	-0.03680488
177	0xbd65969a	-0.056051828
178	0xbdbe62f0	-0.092962146
179	0xbcfe8bbd	-0.031072492
180	0xbd9eb996	-0.077502415
181	0xbdb2f7fe	-0.08738707
182	0xbd9676ca	-0.07346876
183	0xbdd7cea5	-0.10537461
184	0xbd701ef4	-0.05862327
185	0xbd5f041f	-0.05444729
186	0xbdf0312d	-0.117281295
187	0xbdd1074f	-0.10206472
188	0xbdb19716	-0.086713955
189	0xbdc35249	-0.09537179
190	0xbde81b28	-0.11333305
191	0xbd87c977	-0.06630223
192	0x3d65dc37	0.056118216
193	0xbd65114d	-0.055924702
194	0xbc57a8c8	-0.013162799
195	0xbd82217d	-0.06354044
196	0xbdbfabc5	-0.09358934
197	0x3d43ca69	0.047800455
198	0xbd86e885	-0.06587318
199	0xbc70c7e9	-0.0146961

running_mean f4 [200]
0	0xbe12979e	-0.1431565
1	0xbd8a610d	-0.06756792
2	0xbd957708	-0.07298094
3	0x3f6bf83f	0.9217567
4	0x3f9bc7ed	1.2170388
5	0xbf3bf9bf	-0.7342796
6	0xbeb2640b	-0.34841952
7	0x3e5a8b11	0.21342112
8	0x3dc88448	0.09790856
9	0x3f2a9a37	0.66641563
10	0x3dba3d1f	0.09093689
11	0x3dfa3f62	0.122191206
12	0xbf9a2b69	-1.2044498
13	0xbf8fd630	-1.123724
14	0x3f38fa6d	0.7225712
15	0x3f7122c5	0.9419368
16	0x3f8f8abf	1.1214217
17	0x3f261ec7	0.6489071
18	0x3dd4d06b	0.10391315
19	0xbf968f2f	-1.1762446
20	0x3ff7cda3	1.935963
21	0x3e82793f	0.25483128
22	0xbe0144cc	-0.126239
23	0x3eaf5187	0.34241888
24	0x3fc899fd	1.5671993
25	0xbf7c56b5	-0.98569804
26	0xbf87c1c5	-1.0606009
27	0xbfab2fd3	-1.337397
28	0xbf8c1fd3	-1.0947212
29	0xbd858c24	-0.0652087
30	0x3f76cc54	0.9640553
31	0xbf1cceb4	-0.61252904
32	0x3ea1039f	0.31448075
33	0x3fbf3b48	1.4939966
34	0xbe45d045	-0.1931773
35	0xbfaba816	-1.3410671
36	0x3f5c3b45	0.8602794
37	0x40156630	2.334362
38	0xbeaae64d	-0.3337883
39	0xbf852581	-1.040207
40	0x3ee48879	0.4463537
41	0x3f0a67af	0.5406446
42	0x3f7d0f19	0.9885116
43	0x3f939131	1.1528684
44	0x3f276914	0.6539471
45	0xbe7f8df3	-0.24956493
46	0xbea2544f	-0.31704947
47	0xbf0c2261	-0.5473996
48	0x3f9a8204	1.2070928
49	0xbddca375	-0.107733645
50	0xbfad85e1	-1.3556482
51	0x3fde75ab	1.737966
52	0x3fd9cb11	1.7015096
53	0x3f5abd50	0.8544512
54	0xbecf7ce9	-0.40524986
55	0xbe99a6b8	-0.3001001
56	0x3eac3f8c	0.33642232
57	0x3f2f62de	0.68510234
58	0xbe965d40	-0.2936802
59	0x3f8f9284	1.1216588
60	0xbe581387	-0.21101199
61	0xbf383048	-0.7194867
62	0x3f6edd32	0.9330627
63	0x3f37f642	0.71860135
64	0x3e33fc0a	0.17576614
65	0xbd5a5cc8	-0.05331114
66	0xbd063d5a	-0.032773353
67	0xbf960ede	-1.1723287
68	0xc014beb6	-2.32414
69	0x3f3a3cc8	0.72748995
70	0xbf842716	-1.0324428
71	0x3f07932e	0.52958953
72	0x3fa81368	1.3130922
73	0xbeff44eb	-0.49857268
74	0xbff3c8e0	-1.9045677
75	0xbec62f46	-0.38707942
76	0x3f60997e	0.8773421
77	0x3f7a2149	0.9770704
78	0xbf96a2de	-1.1768453
79	0xbf9e3456	-1.2359722
80	0x3faa1bce	1.3289735
81	0x3e429a6c	0.1900422
82	0xbfb1285d	-1.3840443
83	0xbfde17f5	-1.7351061
84	0x3ef07ede	0.46971792
85	0x3f6f838f	0.9356012
86	0x3ec50081	0.38476947
87	0x3f789e67	0.971167
88	0xbf8bd206	-1.0923469
89	0xbf599b3e	-0.85002506
90	0xbe3894b6	-0.18025479
91	0xc0072b1d	-2.1120064
92	0xbf781af3	-0.9691612
93	0x3e4506ce	0.19240877
94	0x3fe8efa5	1.8198134
95	0x3fad3d7c	1.3534389
96	0xbeb253a8	-0.3482945
97	0x3fbbff32	1.4687254
98	0x3f2f564f	0.6849107
99	0xc001729e	-2.0226207
100	0xbdaee9e6	-0.08540706
101	0xbfca6af5	-1.5813891
102	0x3f8c7935	1.097449
103	0xbb59f0a7	-0.0033255012
104	0x3ed00ac7	0.40633222
105	0x3edd3acc	0.4320892
106	0xbf24de82	-0.6440202
107	0x3e92177d	0.28533545
108	0xbf1bcd01	-0.60859686
109	0x3e7ae11a	0.24499932
110	0x3edfd111	0.43714193
111	0x3ea1a44b	0.31570658
112	0x3c9091e5	0.017647693
113	0x3fad0280	1.3516388
114	0x3e9636e1	0.29338744
115	0xbfb4c809	-1.4123546
116	0xbf48b09b	-0.7839448
117	0xbef2210d	-0.4729084
118	0x3e8655a9	0.2623723
119	0x3e0d5ff2	0.13806131
120	0x3f098487	0.53717846
121	0x3f8a09ea	1.0784276
122	0xbfa91bd8	-1.3211622
123	0xbf4cbf3e	-0.7997931
124	0xbf9ef98e	-1.2419908
125	0xbdad8128	-0.084719
126	0x3f42244e	0.75836647
127	0x3e9c4b6c	0.30526292
128	0xbe41b215	-0.18915589
129	0x3e71f245	0.23627575
130	0x3e815539	0.25260332
131	0xbfd6b188	-1.6772928
132	0x3e953669	0.29143074
133	0x3f53c6b7	0.8272509
134	0x3fa9fb9e	1.3279912
135	0x3e0f0ee2	0.13970521
136	0xbf1c3ac4	-0.6102717
137	0xbefb3030	-0.49060202
138	0x3f5d8f92	0.86547196
139	0xbe70c81f	-0.2351384
140	0x3f295a95	0.6615384
141	0x3e3ff0d1	0.18744208
142	0x3ec55ab6	0.3854577
143	0x3e86d88d	0.2633709
144	0x3e2a09da	0.1660532
145	0xbfc45e75	-1.5341326
146	0x3edf404a	0.43603736
147	0xbf62f10d	-0.88649064
148	0x3ffba867	1.9660767
149	0xc000a90d	-2.010318
150	0xbe644779	-0.2229289
151	0x3e90ae1e	0.2825784
152	0x3fed24aa	1.8526814
153	0xbf7eaf1d	-0.9948595
154	0x3f92ee65	1.1479002
155	0x3eceec82	0.40414816
156	0x3fb8e567	1.4445008
157	0x3f28495f	0.65736955
158	0x3ec6ac6f	0.3880343
159	0xbed7ec9f	-0.42172715
160	0xbf8bca49	-1.0921108
161	0xbf3718cc	-0.7152221
162	0x3fa38d94	1.2777581
163	0xbdb73401	-0.08945466
164	0x3fe29ea8	1.7704668
165	0x3f2ae80f	0.66760343
166	0xbf2e9ce1	-0.6820813
167	0x3e7414b7	0.23836027
168	0xbf2630cb	-0.649182
169	0x3f26b408	0.65118456
170	0xbfd2ab21	-1.6458474
171	0x3f5386fa	0.8262783
172	0x3f40cdfb	0.753143
173	0xbeb53313	-0.3539053
174	0xbf932fc2	-1.149895
175	0x3fb6e583	1.4288791
176	0xbf21e446	-0.6323894
177	0xbeedc4d8	-0.46439242
178	0x3f76e55a	0.9644371
179	0x3fec9441	1.8482744
180	0xbedeb4dd	-0.43497363
181	0x3e377560	0.17915869
182	0x3f99881d	1.1994663
183	0x3e83ba74	0.2572819
184	0x3efc0e93	0.4922987
185	0x3fb5eaec	1.4212317
186	0xbdb6fbe2	-0.089347616
187	0xbf481158	-0.78151464
188	0x3ee88d35	0.45420232
189	0x3eaa58d6	0.332709
190	0x3e56f428	0.20991576
191	0x3f84057a	1.0314171
192	0xbe9ccebc	-0.30626476
193	0x3f326a72	0.6969367
194	0xbfba9a80	-1.45784
195	0xbf195b04	-0.59904504
196	0x3e23e912	0.16006878
197	0x3f1ab766	0.60436094
198	0x3f696e62	0.91184056
199	0x3f25669f	0.6460971

running_var f4 [200]
0	0x3e167829	0.14694275
1	0x3e2078e3	0.15671115
2	0x3e00d0e1	0.12579681
3	0x3e1a0acd	0.15043183
4	0x3e23a621	0.15981342
5	0x3e1fcdca	0.15605846
6	0x3e8c65f9	0.2742155
7	0x3e0f53c2	0.13996795
8	0x3e00f3e3	0.12593035
9	0x3e42399e	0.18967292
10	0x3df2d38d	0.11856756
11	0x3e7d9620	0.247643
12	0x3e1efff4	0.15527326
13	0x3e210bc7	0.15727149
14	0x3e45d931	0.19321133
15	0x3e17cfd2	0.14825371
16	0x3e33af71	0.17547394
17	0x3e0e066d	0.13869639
18	0x3e120189	0.14258398
19	0x3df6a0cb	0.120423876
20	0x3e1e82a1	0.15479518
21	0x3e3bd5e3	0.1834331
22	0x3e008234	0.12549669
23	0x3e05ed0b	0.13078706
24	0x3e4ffaeb	0.20310561
25	0x3e2507ca	0.16116253
26	0x3e07dc4c	0.1326763
27	0x3dfc9821	0.12333704
28	0x3e09994c	0.13437384
29	0x3e07b4b9	0.13252534
30	0x3e7c8efd	0.2466392
31	0x3df0391b	0.11729642
32	0x3e0f2fc2	0.13983062
33	0x3e277bb1	0.16355778
34	0x3e257b5d	0.1616034
35	0x3e36c767	0.17849503
36	0x3e0484d5	0.12941296
37	0x3e5327d1	0.20620658
38	0x3e0c9336	0.13728032
39	0x3e04442a	0.12916628
40	0x3dfc77d4	0.12327543
41	0x3e119116	0.14215502
42	0x3e12dd63	0.14342265
43	0x3e558e58	0.20855081
44	0x3df5612c	0.11981425
45	0x3e3941c9	0.18091501
46	0x3e4822b6	0.19544491
47	0x3e0410e5	0.1289707
48	0x3e69e133	0.22839813
49	0x3e121793	0.14266805
50	0x3e34616a	0.17615286
51	0x3e1b88a4	0.15188843
52	0x3e9b436c	0.30324876
53	0x3df4f2a6	0.11960344
54	0x3dfef5d8	0.12449235
55	0x3de7877f	0.11305141
56	0x3e39b0e8	0.1813389
57	0x3ddced32	0.10787429
58	0x3e27b693	0.1637824
59	0x3e3f465b	0.18679182
60	0x3e286a9f	0.16446923
61	0x3e452431	0.19252087
62	0x3e0535a9	0.13008751
63	0x3e74fa8c	0.23923701
64	0x3dcc3120	0.09970307
65	0x3dfa3f94	0.12219158
66	0x3e46bf04	0.19408804
67	0x3e24fb1f	0.1611142
68	0x3ed1f61b	0.41008076
69	0x3de2eb7f	0.110800736
70	0x3e0eda0a	0.13950363
71	0x3dd002ea	0.10156806
72	0x3e713541	0.23555471
73	0x3e2f947d	0.17146488
74	0x3e61a2a2	0.22034696
75	0x3e3814ec	0.17976731
76	0x3e311652	0.17293671
77	0x3e1c5c90	0.15269685
78	0x3e201ae2	0.15635255
79	0x3e9a044d	0.30081406
80	0x3e11d7d5	0.1424249
81	0x3e191e76	0.14953026
82	0x3e3ba0df	0.18323086
83	0x3e721a36	0.23642811
84	0x3e4d92ba	0.20075503
85	0x3e1d6441	0.15370275
86	0x3de32fe7	0.11093121
87	0x3e0b6cf8	0.13615787
88	0x3e0ba879	0.13638486
89	0x3e17e5b8	0.14833724
90	0x3df118e8	0.117723286
91	0x3ea5f3e8	0.32412648
92	0x3dc2a949	0.09504945
93	0x3ddbd32a	0.10733636
94	0x3e18cfac	0.1492297
95	0x3e16f93c	0.14743513
96	0x3e23e124	0.16003853
97	0x3e3ef4e5	0.18648107
98	0x3e044937	0.12918554
99	0x3e45df46	0.19323453
100	0x3e25f012	0.16204861
101	0x3e82769f	0.25481126
102	0x3e4b5429	0.19856323
103	0x3e415fa8	0.18884146
104	0x3df94760	0.12171817
105	0x3e0cc5a4	0.13747269
106	0x3e2242b8	0.15845764
107	0x3e08f4a6	0.13374576
108	0x3df82d8c	0.121180624
109	0x3de8ff7e	0.11376856
110	0x3e1a0851	0.15042235
111	0x3e09452c	0.13405293
112	0x3e0051c9	0.12531199
113	0x3e4aa52f	0.19789575
114	0x3e246f37	0.1605805
115	0x3e09824c	0.1342861
116	0x3e25579d	0.16146703
117	0x3e1071fc	0.14105982
118	0x3dbeacd2	0.093103066
119	0x3dec52c5	0.115392245
120	0x3de46f1d	0.11154006
121	0x3e1f62a0	0.15564966
122	0x3e4b1434	0.19831926
123	0x3dfcb1a6	0.12338571
124	0x3e3b54c0	0.18294048
125	0x3e058c09	0.130417
126	0x3e5fa8d2	0.21841744
127	0x3df27d00	0.11840248
128	0x3dfc0fb0	0.1230768
129	0x3deb72a5	0.11496476
130	0x3e377e86	0.17919359
131	0x3e8860b3	0.26636276
132	0x3e198d0b	0.1499521
133	0x3e44c645	0.19216259
134	0x3e1fb17b	0.15595047
135	0x3dc4d9bd	0.09611843
136	0x3ddb0cc9	0.10695798
137	0x3e1ffdd4	0.15624171
138	0x3e67c046	0.2263194
139	0x3e1acec8	0.15117943
140	0x3e14066e	0.14455578
141	0x3e02d782	0.12777522
142	0x3e06cf80	0.13165092
143	0x3e17d7b6	0.14828381
144	0x3e102093	0.14074926
145	0x3e226417	0.15858494
146	0x3e07b2fc	0.13251871
147	0x3e0ec9c6	0.13944158
148	0x3e995ff9	0.29956034
149	0x3e8951a8	0.2682011
150	0x3e1b8781	0.1518841
151	0x3de4687e	0.11152743
152	0x3e741f82	0.23840144
153	0x3e300746	0.17190275
154	0x3e18d84e	0.14926264
155	0x3e037479	0.128374
156	0x3e4ee188	0.20203221
157	0x3e1314e5	0.1436344
158	0x3e0d2511	0.13783671
159	0x3df5193d	0.119677044
160	0x3e5fdf65	0.21862562
161	0x3e4b79ed	0.1987073
162	0x3e083f59	0.13305415
163	0x3e54a796	0.20767054
164	0x3e59365d	0.21212144
165	0x3e150dd4	0.14556056
166	0x3e00f5ad	0.12593718
167	0x3df529f8	0.119708955
168	0x3e1c8424	0.15284783
169	0x3e205692	0.15658024
170	0x3e65184d	0.22372551
171	0x3e52e58f	0.20595382
172	0x3e182a3a	0.14859858
173	0x3e4c43d4	0.1994775
174	0x3e21c8a8	0.157992
175	0x3e0e04ff	0.13869093
176	0x3e86d886	0.2633707
177	0x3de88b16	0.113546535
178	0x3e3e5678	0.18587673
179	0x3ea5ea66	0.32405394
180	0x3e06b871	0.13156296
181	0x3e1cd3f3	0.15315227
182	0x3de7803b	0.11303755
183	0x3e1c50b3	0.1526516
184	0x3e1c8aab	0.15287273
185	0x3e1d3091	0.15350558
186	0x3e1aeb2c	0.15128773
187	0x3dede981	0.11616803
188	0x3e091e09	0.13390364
189	0x3e19dec5	0.15026386
190	0x3df111a6	0.11770944
191	0x3e2a3904	0.16623312
192	0x3e1a3289	0.1505834
193	0x3de9ce64	0.11416319
194	0x3e4e46c7	0.20144187
195	0x3ddca770	0.10774124
196	0x3df45108	0.11929518
197	0x3e6af2ef	0.22944234
198	0x3e0c352d	0.1369216
199	0x3e45b9f6	0.1930922
